…
                        'weight_decay': 0.04},
    'plotter': 'wandb',
    'tasks_per_node': 1}
[INFO    ][2025-06-30 10:53:49][process_main             ] Running... (rank: 0/1)
[INFO    ][2025-06-30 10:53:51][main                     ] Running pre-training of app: vjepa
[INFO    ][2025-06-30 10:53:51][main                     ] which_dtype='bfloat16'
[INFO    ][2025-06-30 10:53:51][main                     ] Initialized (rank/world-size) 0/1
pred_embed_dim: 384
[INFO    ][2025-06-30 10:53:52][init_video_model         ] MultiMaskWrapper(
  (backbone): VisionTransformer(
    (patch_embed): PatchEmbed3D(
      (proj): Conv3d(3, 192, kernel_size=(2, 16, 16), stride=(2, 16, 16))
    )
    (blocks): ModuleList(
      (0-11): 12 x Block(
        (norm1): LayerNorm((192,), eps=1e-06, elementwise_affine=True)
        (attn): Attention(
          (qkv): Linear(in_features=192, out_features=576, bias=True)
          (attn_drop): Dropout(p=0.0, inplace=False)
          (proj): Linear(in_features=192, out_features=192, bias=True)
          (proj_drop): Dropout(p=0.0, inplace=False)
        )
        (norm2): LayerNorm((192,), eps=1e-06, elementwise_affine=True)
        (mlp): MLP(
          (fc1): Linear(in_features=192, out_features=768, bias=True)
          (act): GELU(approximate='none')
          (fc2): Linear(in_features=768, out_features=192, bias=True)
          (drop): Dropout(p=0.0, inplace=False)
        )
      )
    )
    (norm): LayerNorm((192,), eps=1e-06, elementwise_affine=True)
  )
)
[INFO    ][2025-06-30 10:53:52][init_video_model         ] PredictorMultiMaskWrapper(
  (backbone): VisionTransformerPredictor(
    (predictor_embed): Linear(in_features=192, out_features=384, bias=True)
    (mask_tokens): ParameterList(
        (0): Parameter containing: [torch.float32 of size 1x1x384 (cuda:0)]
        (1): Parameter containing: [torch.float32 of size 1x1x384 (cuda:0)]
        (2): Parameter containing: [torch.float32 of size 1x1x384 (cuda:0)]
        (3): Parameter containing: [torch.float32 of size 1x1x384 (cuda:0)]
    )
    (predictor_blocks): ModuleList(
      (0-11): 12 x Block(
        (norm1): LayerNorm((384,), eps=1e-06, elementwise_affine=True)
        (attn): Attention(
          (qkv): Linear(in_features=384, out_features=1152, bias=True)
          (attn_drop): Dropout(p=0.0, inplace=False)
          (proj): Linear(in_features=384, out_features=384, bias=True)
          (proj_drop): Dropout(p=0.0, inplace=False)
        )
        (norm2): LayerNorm((384,), eps=1e-06, elementwise_affine=True)
        (mlp): MLP(
          (fc1): Linear(in_features=384, out_features=1536, bias=True)
          (act): GELU(approximate='none')
          (fc2): Linear(in_features=1536, out_features=384, bias=True)
          (drop): Dropout(p=0.0, inplace=False)
        )
      )
    )
    (predictor_norm): LayerNorm((384,), eps=1e-06, elementwise_affine=True)
    (predictor_proj): Linear(in_features=384, out_features=192, bias=True)
  )
)
[INFO    ][2025-06-30 10:53:52][init_video_model         ] Encoder number of parameters: 5633856
[INFO    ][2025-06-30 10:53:52][init_video_model         ] Predictor number of parameters: 21443904
[INFO    ][2025-06-30 10:53:52][main                     ] Initializing basic multi-block mask
[INFO    ][2025-06-30 10:53:52][make_mridataset          ] MriDataset Successfully created
…
