…
                    'write_tag': 'vit_base_mriload_k40045_allmodality_coronalonly_AD_sample'},
    'resume_checkpoint': False,
    'tag': 'vit_base_mriload_k40045_allmodality_coronalonly_AD_sample',
    'tasks_per_node': 1}
INFO:root:Running... (rank: 0/1)
INFO:root:Running evaluation: video_classification_grad_cam
INFO:root:Initialized (rank/world-size) 0/1



LOADING FROM BEST PATH



INFO:root:Loading pretrained model from /media/backup_16TB/sean/VJEPA/a6000_output/vit_base/K400/vitbase_mri_ctn_45epoch_from_k400_AD_sample-latest.pth.tar
VisionTransformer(
  (patch_embed): PatchEmbed3D(
    (proj): Conv3d(3, 768, kernel_size=(2, 16, 16), stride=(2, 16, 16))
  )
  (blocks): ModuleList(
    (0-11): 12 x Block(
      (norm1): LayerNorm((768,), eps=1e-06, elementwise_affine=True)
      (attn): Attention(
        (qkv): Linear(in_features=768, out_features=2304, bias=True)
        (attn_drop): Dropout(p=0.0, inplace=False)
        (proj): Linear(in_features=768, out_features=768, bias=True)
        (proj_drop): Dropout(p=0.0, inplace=False)
      )
      (norm2): LayerNorm((768,), eps=1e-06, elementwise_affine=True)
      (mlp): MLP(
        (fc1): Linear(in_features=768, out_features=3072, bias=True)
        (act): GELU(approximate='none')
        (fc2): Linear(in_features=3072, out_features=768, bias=True)
        (drop): Dropout(p=0.0, inplace=False)
      )
    )
  )
  (norm): LayerNorm((768,), eps=1e-06, elementwise_affine=True)
)
INFO:root:loaded pretrained model with msg: <All keys matched successfully>
INFO:root:loaded pretrained encoder from epoch: 145
 path: /media/backup_16TB/sean/VJEPA/a6000_output/vit_base/K400/vitbase_mri_ctn_45epoch_from_k400_AD_sample-latest.pth.tar
Type of encoder.model: <class 'src.models.vision_transformer_gradcam.VisionTransformer'>
INFO:root:Loading checkpoint from: /media/backup_16TB/sean/VJEPA/a6000_output/vit_base/K400/video_classification_frozen/vit_base_mriload_k40045_allmodality_coronalonly_AD_sample/vit_base_mriload_k40045_allmodality_coronalonly_AD_sample-best.pth.tar
INFO:root:Successfully loaded weights from checkpoint: /media/backup_16TB/sean/VJEPA/a6000_output/vit_base/K400/video_classification_frozen/vit_base_mriload_k40045_allmodality_coronalonly_AD_sample/vit_base_mriload_k40045_allmodality_coronalonly_AD_sample-best.pth.tar
init_data: mridataset
INFO:root:MRIDataset dataset created
INFO:root:MRIDataset unsupervised data loader created
INFO:root:Dataloader created... iterations per epoch: 1
INFO:root:Using AdamW
/media/backup_16TB/sean/VJEPA/jepa/evals/video_classification_grad_cam/eval.py:657: FutureWarning: `torch.cuda.amp.GradScaler(args...)` is deprecated. Please use `torch.amp.GradScaler('cuda', args...)` instead.
  scaler = torch.cuda.amp.GradScaler() if use_bfloat16 else None
AttentiveClassifier(
  (pooler): AttentivePooler(
    (cross_attention_block): CrossAttentionBlock(
      (norm1): LayerNorm((768,), eps=1e-05, elementwise_affine=True)
      (xattn): CrossAttention(
        (q): Linear(in_features=768, out_features=768, bias=True)
        (kv): Linear(in_features=768, out_features=1536, bias=True)
        (proj): Linear(in_features=768, out_features=768, bias=True)
      )
      (norm2): LayerNorm((768,), eps=1e-05, elementwise_affine=True)
      (mlp): MLP(
        (fc1): Linear(in_features=768, out_features=3072, bias=True)
        (act): GELU(approximate='none')
        (fc2): Linear(in_features=3072, out_features=768, bias=True)
        (drop): Dropout(p=0.0, inplace=False)
      )
    )
  )
  (linear): Linear(in_features=768, out_features=2, bias=True)
)
/media/backup_16TB/sean/VJEPA/jepa/evals/video_classification_grad_cam/eval.py:487: FutureWarning: `torch.cuda.amp.autocast(args...)` is deprecated. Please use `torch.amp.autocast('cuda', args...)` instead.
  with torch.cuda.amp.autocast(dtype=torch.float16, enabled=use_bfloat16):
/home/sean/anaconda3/envs/jepa/lib/python3.9/contextlib.py:87: FutureWarning: `torch.backends.cuda.sdp_kernel()` is deprecated. In the future, this context manager will be removed. Please see `torch.nn.attention.sdpa_kernel()` for the new context manager, with updated signature.
…
