…
                    'tubelet_size': 2,
                    'uniform_power': True,
                    'use_sdpa': True,
                    'use_silu': False,
                    'write_tag': 'vit_base_k400andMRI'},
    'resume_checkpoint': False,
    'tag': 'vit_base_k400andMRI',
    'tasks_per_node': 1}
INFO:root:Running... (rank: 0/1)
INFO:root:Running evaluation: video_grad_cam
INFO:root:Initialized (rank/world-size) 0/1
INFO:root:Loading pretrained model from /media/backup_16TB/sean/VJEPA/a6000_output/vit_base/K400/vitbase_fix18_ctn_100epoch_from_k400-latest.pth.tar
VisionTransformer(
  (patch_embed): PatchEmbed3D(
    (proj): Conv3d(3, 768, kernel_size=(2, 16, 16), stride=(2, 16, 16))
  )
  (blocks): ModuleList(
    (0-11): 12 x Block(
      (norm1): LayerNorm((768,), eps=1e-06, elementwise_affine=True)
      (attn): Attention(
        (qkv): Linear(in_features=768, out_features=2304, bias=True)
        (attn_drop): Dropout(p=0.0, inplace=False)
        (proj): Linear(in_features=768, out_features=768, bias=True)
        (proj_drop): Dropout(p=0.0, inplace=False)
      )
      (norm2): LayerNorm((768,), eps=1e-06, elementwise_affine=True)
      (mlp): MLP(
        (fc1): Linear(in_features=768, out_features=3072, bias=True)
        (act): GELU(approximate='none')
        (fc2): Linear(in_features=3072, out_features=768, bias=True)
        (drop): Dropout(p=0.0, inplace=False)
      )
    )
  )
  (norm): LayerNorm((768,), eps=1e-06, elementwise_affine=True)
)
INFO:root:loaded pretrained model with msg: <All keys matched successfully>
INFO:root:loaded pretrained encoder from epoch: 200
 path: /media/backup_16TB/sean/VJEPA/a6000_output/vit_base/K400/vitbase_fix18_ctn_100epoch_from_k400-latest.pth.tar
INFO:root:Loading checkpoint from: /media/backup_16TB/sean/VJEPA/a6000_output/vit_base/K400/video_classification_frozen/vit_base_k400andMRI/vit_base_k400andMRI-latest.pth.tar
INFO:root:Successfully loaded weights from checkpoint: /media/backup_16TB/sean/VJEPA/a6000_output/vit_base/K400/video_classification_frozen/vit_base_k400andMRI/vit_base_k400andMRI-latest.pth.tar
INFO:root:VideoDataset dataset created
INFO:root:VideoDataset unsupervised data loader created
INFO:root:Dataloader created... iterations per epoch: 1
AttentiveClassifier(
  (pooler): AttentivePooler(
    (cross_attention_block): CrossAttentionBlock(
      (norm1): LayerNorm((768,), eps=1e-05, elementwise_affine=True)
      (xattn): CrossAttention(
        (q): Linear(in_features=768, out_features=768, bias=True)
        (kv): Linear(in_features=768, out_features=1536, bias=True)
        (proj): Linear(in_features=768, out_features=768, bias=True)
      )
      (norm2): LayerNorm((768,), eps=1e-05, elementwise_affine=True)
      (mlp): MLP(
        (fc1): Linear(in_features=768, out_features=3072, bias=True)
        (act): GELU(approximate='none')
        (fc2): Linear(in_features=3072, out_features=768, bias=True)
        (drop): Dropout(p=0.0, inplace=False)
      )
    )
  )
  (linear): Linear(in_features=768, out_features=2, bias=True)
)
5
[[tensor([[[[[-1.0029, -1.0029, -1.0029,  ..., -1.0029, -1.0029, -1.0029],
           [-1.0029, -1.0029, -1.0029,  ..., -1.0029, -1.0029, -1.0029],
           [-1.0029, -1.0029, -1.0029,  ..., -1.0029, -1.0029, -1.0029],
           ...,
           [-1.0029, -1.0029, -1.0029,  ..., -1.0029, -1.0029, -1.0029],
           [-1.0029, -1.0029, -1.0029,  ..., -1.0029, -1.0029, -1.0029],
…
